logs/obstacle_avoidance_v1/actor_best.pt (torch, 322018 bytes, 9 tensors)

stds f4 [12]
00000000: 1d5a 643e 1d5a 643e 1d5a 643e 1d5a 643e
00000010: 1d5a 643e 1d5a 643e 1d5a 643e 1d5a 643e
00000020: 1d5a 643e 1d5a 643e 1d5a 643e 1d5a 643e
0.223 0.223 0.223 0.223 0.223 0.223 0.223 0.223
0.223 0.223 0.223 0.223

obs_mean f4 [39]
00000000: 1bcf 0cbc da21 d53c a08a 0dbc 2cca 0dbc
00000010: a9be 6abb 675a 11bf 7341 69bd 8b75 983c
00000020: a9d0 703f 2de6 993c bd10 d9be 011e 12bf
00000030: 52d1 943d a981 4dbc 8047 723f 920a 3cbc
00000040: 46a7 dbbe f0d6 60bd 7dee d13d 6883 483d
00000050: d221 323e 4da4 683c f185 4f3c 1b2b 98bd
00000060: 9665 b3bd ec7e 32bd 95f9 483e 1a42 d33b
00000070: c6da 483c 678a 65bc bc52 36bc e256 033e
00000080: 0430 c13e f63d 9bbd 4ca9 b03d 3cf0 15bf
00000090: 57dd 15bf bce1 243b bce1 243b
-0.0085943 0.026017118 -0.008639008 -0.008654159 -0.0035819209 -0.5677857 -0.056947183 0.018610736
0.9406839 0.018786514 -0.42395583 -0.5707703 0.07266487 -0.01254312 0.9464035 -0.0114771295
-0.42901057 -0.05489248 0.10250566 0.048953444 0.17395714 0.014199329 0.012666211 -0.07430097
-0.0875961 -0.043578073 0.19626458 0.006447089 0.012259191 -0.0140100485 -0.011128124 0.12826112
0.37731946 -0.075801775 0.08626041 -0.58569694 -0.5854086 0.0025158962 0.0025158962

obs_std f4 [39]
00000000: 01a8 7d3e ad51 8b3e dde8 bf3f 533f e83f
00000010: d993 ce3f ce6d 933e c854 693e 6556 8c3e
00000020: cd55 933e 3b09 8d3e 268e 8d3e 281b 943e
00000030: b66a 6b3e 37b0 8c3e 819d 923e 7f1f 8d3e
00000040: 6402 8d3e 52ed 5d40 33b6 5240 6db5 a540
00000050: a0f1 9840 1035 ab40 3c21 9d40 424b 5c40
00000060: 827f 5440 d706 a540 aa01 9840 e4f5 ab40
00000070: 7b82 9d40 b449 283f a5db 403f 6f77 563e
00000080: de2b 6c3e 4c58 2b3e 3d55 4c3e 3757 3d3e
00000090: f597 5a3e eb29 dd3e eb29 dd3e
0.2477112 0.2721075 1.4992939 1.8144325 1.613887 0.28794712 0.22786248 0.27409664
0.28776398 0.27546105 0.27647513 0.2892697 0.22989926 0.2747819 0.2863579 0.27563092
0.27540886 3.46761 3.2923706 5.1783967 4.7794952 5.3502274 4.910307 3.4420934
3.3202825 5.157085 4.750203 5.373766 4.922178 0.6573746 0.7533515 0.20943998
0.23063609 0.16732901 0.19954391 0.18490301 0.2134703 0.43196043 0.43196043

weight f4 [256, 39]
00000000: 6c7d 403c 58c4 1abe 00e8 1b3e 5d96 ef3c
00000010: da4c b13d 2f32 3e3d 39f9 5c3e 1749 36be
00000020: 440f 303e 4b63 3f3e 6ebf 7a3e 23bb 33be
00000030: f155 8cbe 5303 b83d 31ea f03d c579 a8be
00000040: 8bf5 403e f118 79be 2533 273e 86c9 9cbe
00000050: fc46 253e cb4b 233e 3177 8f3c 7137 67be
00000060: ecfb 643e 6cff 513c 7c22 78bd 69f9 b03d
00000070: 9886 a23e 2b1d 343e 77a2 3dbd bb6a d2bd
00000080: 2e1d 013c 2198 bd3d 9f05 66be 42bb 0e3d
00000090: 17b5 c2bd 2b1f 4e3e 7a4c 40be 5c7d cdbd
000000a0: 8526 b8be 8104 603e f4bf 2a3e 5f4f b53c
000000b0: 3a45 1abe 2bbe 423c 0b29 113e c0b9 16be
000000c0: ab5b 223e 3f54 353d f790 ef3d 0430 49be
000000d0: d3b0 b9bd bedc 863e 79a2 90bc a5b7 22bd
000000e0: 7ae9 9bbd 8b9e 8c3e 07bb 823c 7e8f 58be
000000f0: 2a44 33be 4aa8 583e 73d6 95be ace3 dc3d
00000100: 3dc2 efbd 0c13 e13d b1a6 c93d dc0e 8abe
00000110: 44f3 313e d54a 85be 9bfd 3b3e 7c37 d8bd
00000120: f2fe 853c 1c18 a33e 362b 97bb f432 4d3b
00000130: 30e6 1ebd 193c 13be 49ee 9ebd 0326 7ebe
00000140: 2082 a73d f8d9 173d 57ef 60be f3a0 083e
00000150: 7db8 56bd 12ad 49be 5284 f73d 80f8 253c
00000160: 50f5 653e 43a6 5dbe 28ba f2bd a69b 573d
00000170: 81f5 46be 2a9a c13d 5189 70be c3dc 56be
00000180: b628 753d 64f0 b1be f036 aabe 820c 7c3e
00000190: 92d1 fabc c93f 273e 62ec 55bd 64db f43d
000001a0: 3e48 7f3e 31a9 6d3e 7bc9 17be b388 bd3d
000001b0: e4f8 b23c 9323 9fbc c2e6 103d 5513 1c3e
000001c0: 8659 293c dd34 2fbe 90f7 5cbe e369 833d
000001d0: 155b 1f3e f852 a9bd d16b 2c3d 6ed2 1dbe
000001e0: 7f81 123e 19ae 8cbe bd9f aa3d 9c5a 0d3e
000001f0: 4af0 e2be 65c1 22bc 0d28 913e 3573 8bbd
00000200: e06c 4dbe 387a a3bd 6ffc 223e 1f86 f0bd
00000210: a72a e53c e1d8 cb3d 8bdf b03e e8c2 e3bd
00000220: 5b99 2abd bb4f 85be b6f0 103e 4f70 6f3e
00000230: 99a9 3fbd e282 3cbe e34f 913e 71ad c5bd
00000240: d1f1 16bd 75c7 84bd 57cd ebbd 78c8 a23e
00000250: 924e 4dbd 61bd 5ebd 6cc2 c43c 302a f5bc
00000260: 4b16 29be ffa3 263c 9255 6abe a31c 1b3a
00000270: 8572 9a3e 2df3 73be 311b 063e 6e52 f6bd
00000280: af88 6fbe 0a9c 8e3d 6447 053a df06 44be
00000290: 6e73 f7bd 41a5 f3bc 0789 ce3e 3465 843e
000002a0: e9bb 7e3d eb15 f63d 6650 b33d a6eb 043d
000002b0: b4a2 9e3e ddfe 093c 8e21 0b3e 7dd5 7bbd
000002c0: 0dee ce3c 4772 44be 5b23 d8bc 58f8 efbd
000002d0: 1246 5bbe 19fd 3cbe 157c aabd 253c 133c
000002e0: b157 823d 7302 853e c2ae 3cbe f388 353e
000002f0: 4783 05be 7ab1 923b c72b e53d 329e 6d3e
00000300: 911f 87bd 47d7 133e 359a f33d aebb c9bd
00000310: 143e 1ebe ea2c 21be 8c68 083e 3715 86bd
00000320: a29e be3d 73e1 de3d 8bf7 42bc d068 2c3d
00000330: 8aa6 8a3d 83e7 e23d 6b9b 103e 9438 01be
00000340: 06ff 123e 1d10 9bbe e512 96bd 2bc6 153e
00000350: 3c14 103e d988 58be 2dd2 803c 4905 053e
00000360: a4c5 053e c84b 34bd 0e03 5c3c 80fc 82bd
00000370: 3560 42be 9242 34be 3a17 653e 3877 eb3e
00000380: 0d15 d3bd c94b cabe 44a9 80bd f9aa 33bd
00000390: fa25 e5bd de3d 1ebe 7a4e debd 2e0e 9abe
000003a0: 23c6 75bc 793e a1bd 2e8b 633d 37ac 4b3e
000003b0: 4163 31be 8d1e b43e c5ea 44bd 28db 8f3e
000003c0: b8fe 963e 2046 813e 9e8f 0f3e cc27 403e
000003d0: 64f6 36bd 78ef 5c3d 1510 d9bd d708 57bc
000003e0: 60bd 83be 5e5b aaba a193 bcbe 95ae 263e
000003f0: fb4f 953e fab5 603e 64a8 0f3d 977e 923d
0.011748653 -0.15113962 0.1522522 0.029246503 0.086572364 0.046434578 0.21579446 -0.17801319
0.17193323 0.18690221 0.24487087 -0.17551856 -0.27409318 0.08985009 0.117634185 -0.32905403
0.18843667 -0.2432592 0.16328104 -0.306225 0.1614036 0.15946881 0.01751289 -0.22579743
0.22361726 0.012817245 -0.060579762 0.08641321 0.31743312 0.17589252 -0.046297517 -0.102742635
0.007880492 0.09257532 -0.22463082 0.03484655 -0.095071964 0.20129077 -0.18779173 -0.10033676
-0.35966888 0.21876718 0.16674787 0.022132574 -0.1506547 0.01188616 0.14175813 -0.14719296
0.15855281 0.044269796 0.11697572 -0.19647223 -0.0906693 0.26340288 -0.017655598 -0.03972592
-0.076128915 0.2746471 0.015958322 -0.21148488 -0.17506471 0.21157947 -0.29265174 0.107856125
-0.1170697 0.10989961 0.09846247 -0.26964462 0.17377955 -0.26033655 0.18358462 -0.10557458
0.016356919 0.31854331 -0.0046133054 0.0031310888 -0.038793743 -0.14378394 -0.07760293 -0.24819188
0.08179116 0.037073106 -0.21966301 0.13342647 -0.052422035 -0.19694927 0.12085785 0.010130048
0.2245686 -0.21645455 -0.11851913 0.052638672 -0.1942959 0.094532326 -0.23489882 -0.20982651
0.059853278 -0.34753716 -0.3324504 0.24614146 -0.030617509 0.16332926 -0.052227385 0.11955908
0.24929902 0.23209073 -0.14822952 0.09254589 0.021847196 -0.019426143 0.035376318 0.1524175
0.010336285 -0.1711001 -0.21578813 0.06416681 0.15562089 -0.08267778 0.04209501 -0.15412304
0.14307211 -0.27476576 0.08331249 0.13804096 -0.4432395 -0.009933804 0.2835087 -0.06809083
-0.20061064 -0.07982296 0.15916608 -0.117443316 0.02797444 0.09953476 0.3454555 -0.1112116
-0.041650157 -0.26037392 0.14154324 0.23382686 -0.0467926 -0.18409303 0.2838126 -0.09652222
-0.036851708 -0.06483356 -0.11513775 0.3179357 -0.05012376 -0.054379825 0.024018489 -0.029927343
-0.1651241 0.010170936 -0.22884205 0.0005917048 0.30165496 -0.23823233 0.1309631 -0.12027441
-0.23391984 0.06963356 0.00050841854 -0.19143246 -0.12082563 -0.029741885 0.4033892 0.25858462
0.062190924 0.12015899 0.08755569 0.032451294 0.30983508 0.008422581 0.13587019 -0.061482895
0.025259996 -0.19184218 -0.026384046 -0.1171729 -0.21413448 -0.18455924 -0.08324448 0.008986508
0.06364382 0.2597843 -0.1842604 0.17728023 -0.1303836 0.0044767233 0.111899905 0.23204878
-0.06597818 0.1443759 0.11894647 -0.0985025 -0.15453368 -0.1573979 0.13321131 -0.06547015
0.093076006 0.10882845 -0.011899839 0.042092144 0.06770046 0.110793136 0.14121787 -0.12619239
0.14355096 -0.3028573 -0.073278226 0.14626376 0.14070219 -0.21145953 0.01572522 0.12990297
0.13063675 -0.044017583 0.013428463 -0.06395817 -0.18982013 -0.1760352 0.22372141 0.45989394
-0.103067495 -0.39510944 -0.06282285 -0.043864224 -0.11188884 -0.15453288 -0.10854812 -0.30088943
-0.015000853 -0.07873244 0.055552654 0.19889913 -0.17323019 0.35179558 -0.048075456 0.2809689
0.2949121 0.25248814 0.1401963 0.18765181 -0.04466857 0.053939313 -0.105987705 -0.013124666
-0.2573042 -0.00129972 -0.36831382 0.16277535 0.29162583 0.21944419 0.0350727 0.07153051

bias f4 [256]
00000000: 21f7 8f3d ce53 1e3c 8b9c 6d3d dd7a d13c
00000010: b6ff f73c c1fc 653d 54f7 2b3d eb68 ca3c
00000020: 03c3 fe3c 8906 863a 3b73 403d 95b6 ac3c
00000030: a83d 723c 28d5 873c 6476 ea3c b38d c83c
00000040: b5b1 973d da83 ae39 169a 783d ca9e 793d
00000050: 7b5a f73c aa21 573c 92b0 923c acbd 693c
00000060: 873f 593d 8ef2 413b b7fb 983c dd0d 023d
00000070: e1c9 423d 9b86 253b f4a6 8e3c 5e8d 7c3d
00000080: b976 de3c 840c 373d 395d 273d 6ab5 673d
00000090: 52d4 ff3b bdf8 103d aa47 963d 6907 243d
000000a0: 32c4 5ebc 0573 273d 9d8f ec3b 3253 323b
000000b0: 2467 573c e87f 003d 091b 22bb 8798 323d
000000c0: 25d2 8c3d 5b73 b03c 9bc3 0d3d 691b 723d
000000d0: dfe1 733c 6356 773d 2044 cc3b c8f9 a3bb
000000e0: 72ff b23c 90f7 3d3d 37d7 ba3b 7626 7a3d
000000f0: a9ad a23c 8f1a d83c 46c5 293d 1288 233d
00000100: a796 153d da95 ef3c 8a11 473d 5e75 363a
00000110: b7d9 4e3d e209 373c 2451 713c 3a92 1d3d
00000120: e2d7 f63c ec51 eaba 2aef 8dbb 4a92 cd3c
00000130: 64b0 023c 1b6f 103d ea11 cc3c 8dff b93c
00000140: 576c b33c fe65 2cbc 8dc1 f13c e2e4 a53c
00000150: a2b8 233c 3915 103d b45c 343d cae2 933c
00000160: aede e73c c188 413d fdfe a63c a8c2 473d
00000170: b70b 0f3d 9ad6 7e3c d7c4 8a38 4f1f a83c
00000180: 5d73 3d3d c5c4 733d 4440 403d 71e3 65bb
00000190: 5aa0 303d b160 d53c f109 fb39 c5bf 103c
000001a0: 506e 103c 2c7f 59bb 7691 a23d 6fba ca3c
000001b0: df4d c73b b2ab 3b3d 6bde e03c 5bb5 ba3d
000001c0: 0b64 333d 2654 213d ceab 243d 7e58 00bb
000001d0: 8db6 5c3d 9c27 2d3c 12fd 633d 4ecb 623c
000001e0: f85f 863d c1c7 003d 9803 903d 3127 133c
000001f0: 21e3 a63c a68a 9e3d 3413 aa3c 93ce 8c3c
00000200: 9a7f 6c3d d520 19bc f50b 453d 85b7 503d
00000210: 4d23 2a3d f07a c73c af1b c33c a930 423c
00000220: d8cc e53c ffc9 123d a7ca 2a3d 8db8 e73c
00000230: 659c ca3c f462 863d e27a bd3c 9f17 663d
00000240: 2965 4c3c 9a36 b83c 757b 61bb 7740 863d
00000250: aec8 21ba 313a b03b cc93 b13a 5843 d23b
00000260: bed4 933d ae6d 943c 486e 0c3d 0de2 d73b
00000270: 6001 503d 6061 ca3c 757e a23c d1ee 163d
00000280: e690 a73c 3a65 2e3d ef7f 863c e4fc 433d
00000290: 4863 073d e86a 153c 6b70 e93b 5ba3 0e3d
000002a0: 1128 c03c 0f8e 433d 4e67 b23c 5ea2 c83c
000002b0: 364f 22bd cead 153d a99d 373d cd95 093d
000002c0: d261 b93b 657c 3e3c 105d 543d 5a9c f83c
000002d0: cfee f13b 30d0 8f3d fe62 e2bc 7713 653c
000002e0: dea5 27bb 5648 943d df30 103d 851a 263c
000002f0: 356e 133d f1ff 843d 9191 3c3b d7d7 193c
00000300: 77a2 813c 7641 313c a22d 163c aad4 273c
00000310: 7f19 8e3d 5cc6 f93b a695 e7bc 51c0 2f3c
00000320: 3506 3a3d e90f 513d 62df 373d 6aee 573d
00000330: 7d66 2f3c 275a 1e3d 26be 183d c095 dcbc
00000340: 12be 9a3b 0535 963d a24f 563d 0de9 0a3d
00000350: 5800 8d3d 1964 0b3d 853a b63c 0320 3d3b
00000360: 6521 853c 4401 cdbc 46bb 473d 7030 a33d
00000370: 7b3c 173d 7e28 cf3c b163 c43b 1c5d 01bd
00000380: 8ea3 983d 2657 603d ebe0 ff3c c784 8f3c
00000390: a259 ad3c dfa5 ae3d 17a5 1f3c 9a40 55bb
000003a0: 9c6d 7d3c c248 783d f5bd 113d 1f83 4c3b
000003b0: 6d80 013c 8d35 5a3d 44e5 1c3d 4534 293a
000003c0: 7bfe 093d 6e04 f03c 0a9e 9f3c 188a 563d
000003d0: 6b3e 313d c2f9 d13c 3405 d33b bdc2 e93b
000003e0: 45d6 cdbc d552 6f3c bf35 8c3c e0e2 813d
000003f0: 2e2d 6c3c 05f4 f03b b361 e43c 1424 ed3b
0.07029558 0.009663535 0.05801062 0.025571281 0.0302733 0.056149248 0.041983917 0.024708232
0.031098848 0.0010225336 0.046984892 0.021083156 0.014785208 0.016581133 0.028620906 0.02448163
0.07406942 0.00033286103 0.060693823 0.06094245 0.030194512 0.013130585 0.01790646 0.014266413
0.0530391 0.0029594037 0.018674714 0.031751502 0.047555808 0.0025257233 0.017413594 0.061658256
0.02715622 0.04468967 0.04086039 0.056569494 0.007807293 0.035393465 0.073378876 0.04004613
-0.013596581 0.040881176 0.0072192685 0.0027210233 0.013147149 0.03137198 -0.0024735352 0.043602493
0.068760194 0.02153938 0.034610372 0.05910817 0.014885395 0.06038512 0.006233707 -0.0050041415
0.021850321 0.046378672 0.005701925 0.061071835 0.019858198 0.026379852 0.0414479 0.03992469
0.036520626 0.02924626 0.04860071 0.0006960238 0.050500598 0.01117179 0.014728818 0.03846953
0.030132238 -0.0017877198 -0.004331489 0.02509417 0.007976625 0.03526221 0.024910886 0.022704864
0.021902246 -0.010522364 0.029511238 0.020250741 0.00999275 0.03517649 0.04403372 0.018052477
0.028304424 0.04724956 0.02038526 0.048769623 0.03492328 0.015554095 6.617017e-05 0.020522742
0.046252597 0.059513826 0.04693629 -0.0035078193 0.043121673 0.026047083 0.00047881858 0.008834784
0.008815363 -0.0033187373 0.07937901 0.024747102 0.006082281 0.04581804 0.027449807 0.09116622
0.04379658 0.03938689 0.04020291 -0.0019583995 0.05388503 0.010568526 0.05566127 0.013842417
0.06561273 0.0314405 0.070319355 0.008981512 0.020371975 0.07741289 0.02076111 0.017188346
0.057738878 -0.009346207 0.048107106 0.050956268 0.04153757 0.024350613 0.023816912 0.011852422
0.028051779 0.03583717 0.04169717 0.028286243 0.024732778 0.065618426 0.023129884 0.05617487
0.01247529 0.022486974 -0.0034405862 0.065552644 -0.0006171566 0.0053780307 0.0013548075 0.0064167194
0.07218312 0.018118706 0.03428486 0.0065882266 0.05078256 0.024704635 0.01983569 0.036848847
0.020454835 0.042577006 0.016418425 0.047848597 0.033053666 0.009119727 0.007123997 0.034823757
0.023456605 0.0477429 0.021777775 0.024491485 -0.039626323 0.036542706 0.04482809 0.033590127
0.005657413 0.011626338 0.051846564 0.030347992 0.0073832045 0.070221305 -0.027635094 0.013981692
-0.0025581042 0.072403595 0.035202857 0.010138159 0.035993773 0.064941294 0.0028773288 0.009389839
0.01582454 0.01081883 0.009166153 0.010243574 0.06938457 0.0076225232 -0.0282696 0.010727004
0.045416076 0.051040564 0.04489077 0.052717604 0.010705587 0.038660195 0.037290715 -0.026926875
0.004722365 0.073343314 0.052322038 0.03391366 0.06884831 0.034031007 0.022244701 0.0028858192
0.016251275 -0.025025018 0.048762582 0.07968223 0.036922913 0.025287863 0.0059933295 -0.031582937
0.074530706 0.05477061 0.031235179 0.017519368 0.021160904 0.08527731 0.00974395 -0.0032539726
0.015468027 0.060616262 0.035581548 0.0031206084 0.007904154 0.053273726 0.038304582 0.0006454627
0.033689957 0.029298987 0.019484539 0.05237779 0.043272417 0.02563179 0.0064398292 0.0071338103
-0.025126586 0.014607151 0.017115472 0.06342101 0.014415069 0.007353308 0.027878618 0.007236967

weight f4 [256, 256]
00000000: 3c7f 7c3d ddcd 0e3e 8a77 16bd 059e 933b
00000010: 8e18 223d c488 8cbb 9a49 bdbc dc5b c5bc
00000020: f030 bd3b 87f6 82bc 29ff d43c e249 163d
00000030: ad86 0abd 827e 06ba a654 d7bc 63a1 e53d
00000040: 0f29 a0bb 6a40 86bd 2c3a 82bb 14e6 153e
00000050: 8de6 8ebd f482 b73d 75f8 00bd bc0e a9bd
00000060: 0272 70bd 675a 29bc ce4f 7cbd 4e92 e33d
00000070: d375 b2bd 6f71 fe3d a6b0 1e3d 737d debd
00000080: fc40 463d 595a dcbc f94e 9c3d 0d50 183b
00000090: f70a d2bd 7222 723e ca00 573e 2dce 183d
000000a0: 5cbd d7bc 92b1 6cbd cf1d 1abc 08b1 143e
000000b0: 94a5 9fbd e39a 91bd e0e5 bb3c bf97 1c3e
000000c0: 329d 09bb f03d 92bc 6291 93bc c1b4 743d
000000d0: 7aa9 9ebd 93c7 e4bc 41e3 343d baed 99bc
000000e0: a504 e73c 0cc3 8d3d 2fa8 143d 8261 9c3c
000000f0: 96c9 11bc 1311 ffbb b9d0 be3b 222b bebd
00000100: a6ca e83c 05cf 0e3e 9828 b4bc 99d3 e23d
00000110: aba3 3bbc 3aa4 acbb d6c9 053d 4f72 9f3d
00000120: 066a b23d 6e34 02bb 500f 1c3d 6e3f 523d
00000130: decc d43d a149 0bbc 66e0 4fbc 5482 82bb
00000140: c435 de3d edfb 663b 0f69 10bc cdc4 2f3d
00000150: 3e21 d0bb ebe1 b2bd b672 e1bd daaf abbb
00000160: ae8c 0ebe 460e 9bbd d158 67bd 4cfd 3dbd
00000170: dad3 fe3c 3b3a 813c aa23 42bd a657 a9bd
00000180: b2dc dd3c 7f40 49bb 166c c3bd c53f 803d
00000190: 9b73 2a3e 05ec edbc 5fe9 6bbd 2ed6 e33d
000001a0: 0206 09bb 6e51 cdbd 64df c8bd 0a76 23bb
000001b0: b1f5 1cbb 18e3 c13c 1e2d 1ebe 2404 84bd
000001c0: e075 e93d f88d cfbd 903e d13c 068c 5e3d
000001d0: 9e7b a23d 32f7 e6bc b0e0 6c3d c1eb 763d
000001e0: 9300 693b 1ac0 f23d 1ad3 7abd e766 a43d
000001f0: 836e eabd 4aec 61bd 8cf4 67bd 4285 853c
00000200: 8cf6 efbc 2de2 51bd fe12 8d3d 1e99 bebc
00000210: 6957 803d 6cb0 c2bc d8ae 413d 2f9d 92bd
00000220: 776f 0b3d 53a9 743c 70ae 583d cfe5 1fbd
00000230: f891 433c 2b70 023e 66c2 b03c 2297 87bd
00000240: f537 25bb 0003 61bc 9ab0 5cbd e78d 9e3c
00000250: 5607 e0bc 1068 9dbd 8f85 f43c 19fa 34bd
00000260: 35de 23bd b0ec ac3d b145 04bd 3ba7 c9bd
00000270: a7f5 283d 118d d4bd 7ab2 103e 6278 903d
00000280: 0dec febc f9ee a0bc 8bd5 46bc 4f50 3c3e
00000290: f5ab f7bc e922 2abd a6e2 8dbc 1483 0dbd
000002a0: 4a1d 4a3d f24d c0bd 8c55 36bc b7df 34bd
000002b0: 8225 223d a2e4 f7ba 77f7 143d 272c 5fbd
000002c0: 010e 863c 8927 b03c eb46 4ebd e26b 623c
000002d0: 27d6 03be 69e7 6abd b1f7 8bbd 7c37 83bd
000002e0: 7154 21be 8316 703d 6b7a 083d 5b14 3ebd
000002f0: 726d 83bd bdb6 c73b e57f 853c 2d24 153d
00000300: 3a17 7d3d 3e82 c6bd 5030 8cbc 6fc2 1f3d
00000310: fc26 cfbd 7580 2e3d df17 913c 4e4b 143d
00000320: 2bab 65bd 4f26 5c3c 1fa9 103d ec5e 993d
00000330: b1bf 713d ecbe 723b d6a7 7dbd 6790 9e3d
00000340: 8a60 68bc aa44 793d d4aa 28bd b574 9c3b
00000350: dd44 71bc 9685 103e 0e0a eabc ae4e debd
00000360: a383 d03d 37e9 16bc f84a d63d 6200 fd3d
00000370: 7112 ae3d 0468 03be 8294 0dbd c4a9 f53d
00000380: 0be9 91bc 7ee1 a4bb b932 1cbd fb38 7c3c
00000390: 5f52 d63c 81ae dd3b 153d 6fbd 62fd 60bd
000003a0: ebfc 1c3d d332 b53b 301a 8cbc 011a b8bc
000003b0: 6059 ab3d 2226 a6bd ff16 e2bc b133 2dbd
000003c0: da01 473d 95d5 9f3d b8cf 913d 10c6 84bb
000003d0: 663a d6bc 1339 9cbd 3a21 c6bc c99e c2bc
000003e0: 2243 8a3c cd40 f03d 1877 ca3b 43aa d53d
000003f0: eff0 11be 6f28 153d 8447 aabd 6931 183d
0.061644778 0.13945718 -0.036735095 0.0045049214 0.0395742 -0.0042887647 -0.023106385 -0.024091654
0.005773656 -0.015986694 0.026000576 0.036691554 -0.033819843 -0.00051305455 -0.02628548 0.11212423
-0.004887707 -0.06555255 -0.00397422 0.14638549 -0.06977568 0.08960524 -0.031486947 -0.082547635
-0.058702476 -0.010336495 -0.061599545 0.1111189 -0.087138794 0.124239795 0.038742684 -0.10863771
0.048401818 -0.02689855 0.0763225 0.0023241073 -0.10255998 0.23645952 0.20996395 0.037306
-0.02633541 -0.05778653 -0.009406521 0.14520657 -0.077952534 -0.071096204 0.022936761 0.15292262
-0.0020998237 -0.0178518 -0.01801366 0.059742693 -0.07747169 -0.027927196 0.04416204 -0.018790115
0.028200457 0.06921968 0.036293205 0.019089464 -0.0088981595 -0.007784018 0.0058232215 -0.09285571
0.028416943 0.13946159 -0.021992013 0.11075515 -0.011452596 -0.005268601 0.03266319 0.077854745
0.087116286 -0.0019867676 0.03810054 0.051330023 0.10390638 -0.008501441 -0.012687778 -0.0039828215
0.10850099 0.0035245374 -0.00881411 0.042912293 -0.006351619 -0.08734497 -0.110082075 -0.005239469
-0.13920853 -0.07571082 -0.056481186 -0.04638414 0.031106878 0.015774837 -0.047397293 -0.08268671
0.027082775 -0.0030708609 -0.095421 0.06262163 0.16645662 -0.029043207 -0.057595607 0.11124836
-0.0020908122 -0.10025297 -0.098082334 -0.0024942183 -0.0023950154 0.023667857 -0.15446898 -0.06446102
0.11399436 -0.101345 0.025542527 0.054332756 0.07933734 -0.028194044 0.057831466 0.060283426
0.003555332 0.11853047 -0.06123648 0.080274396 -0.1144686 -0.055156983 -0.056629702 0.016298894
-0.029292367 -0.05124109 0.06888388 -0.023266371 0.06266672 -0.023765765 0.047285885 -0.07158887
0.034041848 0.014932948 0.05290073 -0.039037522 0.011936657 0.12738101 0.021577071 -0.06620623
-0.0025210355 -0.013733625 -0.053879358 0.019354774 -0.027347248 -0.07685864 0.029848842 -0.044183824
-0.040006835 0.08443582 -0.032293025 -0.0984635 0.041249897 -0.10378469 0.14130583 0.07054211
-0.031118417 -0.019645201 -0.012135874 0.1839001 -0.030233363 -0.0415372 -0.017319988 -0.034548834
0.04934434 -0.09389867 -0.011128794 -0.044158664 0.03958655 -0.0018912742 0.036368813 -0.054485466
0.0163641 0.021503227 -0.0503606 0.013819667 -0.12874661 -0.057349596 -0.06834353 -0.06407067
-0.15754868 0.05861522 0.033319872 -0.04640613 -0.064173594 0.006094782 0.016296336 0.036411453
0.06178973 -0.096928105 -0.017112881 0.039003786 -0.101148576 0.042602975 0.017711578 0.03620463
-0.05607144 0.013436868 0.035317536 0.07488808 0.0590207 0.0037040068 -0.06192764 0.07742386
-0.014183173 0.0608565 -0.04117854 0.0047746547 -0.014725891 0.14113459 -0.028569248 -0.10854851
0.10181358 -0.009210876 0.10463518 0.12353589 0.08499611 -0.12832648 -0.034565456 0.11995271
-0.017811319 -0.0050317636 -0.03813431 0.015394445 0.026162324 0.0067651873 -0.05840786 -0.054929145
0.03832714 0.0055297404 -0.01710233 -0.022473337 0.08366656 -0.08112742 -0.027598856 -0.042285625
0.04858575 0.078044094 0.07119697 -0.004051931 -0.026150893 -0.076280735 -0.024185766 -0.023757355
0.016877715 0.1173111 0.006178748 0.104328655 -0.14252065 0.036415514 -0.08314422 0.037156496

bias f4 [256]
00000000: ff0e a73c e113 62bc a6d0 da3c 5c66 6a3c
00000010: 21df 763c 8eba 753c 771a c23b 363c b93c
00000020: 9684 d53b 1ca1 903c dede 34b9 6a13 b2b9
00000030: 930c d939 0fe3 b73c 4654 cebb 7b16 ac3b
00000040: 15e4 9c3c d861 d63b 90cd 6d3c 329a 893c
00000050: c38c b23c 5ae6 a53c 29c4 ad3c efbb c63c
00000060: 03fb ee3b c367 933c 1c10 1f3b f410 8c3b
00000070: 8f9b ab3c 04a0 893c 0771 163c 4f7f 8c3c
00000080: 4391 463b f3fd 61bc 6f74 1d3b 91a7 33bc
00000090: 1a67 42bc cd35 88bc dfe4 753b 595e 2dbc
000000a0: a720 b139 5d43 c43c 574a 52ba 5424 c13b
000000b0: 8e85 c83c 368a 843c 2888 113c 1399 203c
000000c0: 2678 c13b 4e40 143c 8ae5 963c 3c1e c83c
000000d0: b390 00bb 7c3d a73b 86f9 063a 7b9c a3bb
000000e0: c1ba 9c3c 15a6 923c 75d0 a9bb 51b7 50ba
000000f0: 3f31 52bc 2fda 943c 75ca 013d 05bb 94ba
00000100: 1261 693a 0729 903c 5f42 51bb c832 713c
00000110: d9c8 0e3b abc0 1d3c 6e48 4b3c 3793 0c3d
00000120: f1e0 383c 05f6 d8ba b471 d53b 914d babb
00000130: d5ac 71ba 331e 283c e1e6 b63c 8f49 a43c
00000140: f3fd c1bb aca4 ae3c 7698 be3b 6280 a43c
00000150: fabb 0e3c 13e8 0d3d 0e81 3e3c 2f86 753c
00000160: 8675 b13a 4018 a43b 9328 503c 005e 0e3c
00000170: 4efe 903c 834e ed3b 4198 0dbb 7d67 923c
00000180: ef93 5b3a e1c0 72bc 4124 403c 3077 a8bb
00000190: ed66 be3c e112 9b39 c836 503c 23b6 c33a
000001a0: a075 52ba 1651 443c 2473 e23c 0168 e43c
000001b0: 7003 3d3c 9559 ec3b c3f4 8d3a a0be 5f3c
000001c0: 00a5 6f3c b30c babc 90ad 3e3c 8ee1 0e3c
000001d0: dc45 f53c 6adc 2e3c 9fd2 823c 482c 123d
000001e0: 3876 b63c 7598 803c c8a4 1cb9 6276 073c
000001f0: 8241 a53c b3cc e93b 933f ffba 955b 95bb
00000200: a919 c53a 3d06 1e3c 43f2 e93b 5a42 073c
00000210: 7714 623c e55b 143d 0dfd 82bc 89ba 013c
00000220: 2dc0 aabb 75d0 423c 3bc5 e03c d28b 03bb
00000230: e471 ff3c 1905 e7bb 99e8 95bc 478c 313c
00000240: 24b0 8abc e061 023d 3a85 5c3c efeb 3dbc
00000250: e4d3 973b fb02 b33c 51f2 443c 928d cf3c
00000260: 88a1 613c 0076 333c f824 333b d1ce 383b
00000270: a06b fe3c 3022 c33c 788c 98bc 5ca2 123c
00000280: a249 0f3d 8317 163c e616 d9b9 5c6e 173d
00000290: 3add b63c 6e12 2a3b bfde 113b 1bf2 ef3b
000002a0: 6d14 253c 7145 d0bb e530 833c 958e edbb
000002b0: ee91 c93b ff5a 523c a389 9a3b 678c 053d
000002c0: c422 013c eac6 073d 14d4 933b 203b 043d
000002d0: 6050 61bb 6161 ce3b 9807 eabb 64de 6cbc
000002e0: de57 2e3c 9a60 f5bb 819a 7d3c 8848 8d3a
000002f0: 3206 1a3c f047 173c f612 1c3a 3774 5bba
00000300: 6f00 b33c 99a4 bf3c fe73 683c 22cc 4e3c
00000310: 7714 743c a54f b03c 9699 903b ae09 0e3b
00000320: 6b6a fe3c 4fb1 3fbc 9b3e 013b 05d7 cc3b
00000330: 4d42 b93b 1db7 4cbc c492 753c 39a3 ef3c
00000340: dc18 613c b571 993c 45de 593c aca7 123c
00000350: e5ed a83c c143 5abc 7285 cbba dcdf ff3b
00000360: e6a4 27ba 75ee d53b be0a 053c 972e 5f3b
00000370: 1956 663c 1aef 883c 811e 0bbc bab0 22b9
00000380: 0ac9 b13c 7464 633c b2c9 123c 06c6 d13b
00000390: 9556 28bb 394e c23c 5cad ac3b 5846 0a3c
000003a0: 8d43 503c 18b5 273c c0af 99bb cf1a 5c3c
000003b0: 0a14 043d 2e50 a53c 6d59 c73b d270 d93c
000003c0: 93ea 56bc c67f ac3c 54ce 0a3c 0105 f33c
000003d0: abb7 e5ba 0a00 523c 71bf e13c ac00 263b
000003e0: ad00 873b 01ed 513a 98ac 263d 3dfa 8f3b
000003f0: f216 5b3c 78fa a03c a387 ab3b ea59 923c
0.020392893 -0.013798685 0.02671082 0.014306631 0.0150678465 0.014998091 0.005923565 0.022611719
0.0065160496 0.017654948 -0.00017249162 -0.0003396527 0.00041398834 0.022447137 -0.0062966673 0.0052517033
0.019151727 0.0065424256 0.014514342 0.016797159 0.021795636 0.020251442 0.0212117 0.024259536
0.0072931065 0.017993813 0.0024271077 0.004274482 0.0209482 0.016799934 0.009182221 0.01715055
0.0030298985 -0.013793456 0.0024025699 -0.010965244 -0.011865402 -0.016627217 0.003752045 -0.010581576
0.000337844 0.023957903 -0.0008021942 0.005894223 0.024477746 0.016179185 0.00888256 0.009802121
0.0059042154 0.009048535 0.01842 0.02442848 -0.0019617497 0.005103765 0.0005148876 -0.004993019
0.01913202 0.01790146 -0.0051823207 -0.00079618866 -0.012829124 0.018170444 0.03168722 -0.001134724
0.0008902709 0.017597688 -0.003193043 0.01472158 0.0021787195 0.009628455 0.012407405 0.034320083
0.011284099 -0.0016552812 0.0065137986 -0.005685516 -0.00092191744 0.010261106 0.022326889 0.020054607
-0.0059201657 0.021318756 0.0058165146 0.020080749 0.008711809 0.03464515 0.011627449 0.014985605
0.0013539053 0.0050077736 0.012704986 0.0086894035 0.017699387 0.0072420253 -0.0021605643 0.017871613
0.0008376231 -0.014816494 0.011727394 -0.0051411614 0.023242438 0.0002957797 0.012708373 0.00149316
-0.0008028392 0.011982223 0.027642794 0.027881624 0.011536464 0.0072128274 0.0010830391 0.013656288
0.014626741 -0.022711134 0.01163806 0.008720769 0.029940538 0.010672668 0.015969573 0.03568676
0.022273168 0.015697697 -0.00014938705 0.008267971 0.020172838 0.0071349978 -0.0019473903 -0.0045580366
0.0015037555 0.009645042 0.0071394756 0.008255566 0.0137988245 0.03622045 -0.015989805 0.007918009
-0.0052108974 0.01189052 0.027437797 -0.0020072353 0.031182237 -0.0070501682 -0.018299388 0.010836667
-0.016929694 0.031831622 0.013459498 -0.0115918955 0.0046334136 0.021852007 0.012020663 0.02533606
0.013771422 0.010953426 0.0027335268 0.0028199444 0.031057179 0.023820013 -0.018621668 0.008949842
0.03498233 0.009160879 -0.00041406526 0.03697048 0.022322286 0.0025950926 0.002225801 0.0073225624
0.010075671 -0.0063559343 0.016014526 -0.007249663 0.0061514294 0.012839078 0.0047161146 0.0326046
0.007881824 0.033148684 0.0045113657 0.03228295 -0.0034380183 0.0062982296 -0.0071420185 -0.014457319
0.010641066 -0.0074883224 0.015478731 0.0010779062 0.009400891 0.00923346 0.0005953753 -0.00083715044
0.021850793 0.023393916 0.014187811 0.012621911 0.014897457 0.021522352 0.00441284 0.002167325
0.031056603 -0.0116999885 0.0019721154 0.0062512183 0.0056536556 -0.0124948295 0.014988605 0.029252635
0.013738837 0.018730978 0.013297622 0.008951109 0.02062125 -0.013321818 -0.0015527441 0.0078086685
-0.0006395116 0.0065286704 0.008120237 0.003405487 0.014058613 0.016715575 -0.008491159 -0.0001551536
0.021702308 0.01387893 0.008959221 0.00640178 -0.0025686373 0.02371894 0.0052696895 0.008439623
0.012711418 0.010236047 -0.0046901405 0.013434126 0.032245673 0.020179834 0.0060836584 0.026543055
-0.01311745 0.02105702 0.008472044 0.029665472 -0.0017526051 0.012817392 0.027557107 0.002532999
0.0041199536 0.00080080336 0.040691942 0.0043938444 0.01337217 0.019650683 0.005234675 0.01786514

weight f4 [12, 256]
00000000: 298d 88bc 3ffb de3b e285 383d 4904 a23c
00000010: 187b 2cbc 3f1a 80bc 138f 8f3c 1708 ad3c
00000020: 9331 36bc 6c06 ee3c d1cb 733c 827d c4bc
00000030: 9a11 8bbc 8783 3f3d 99e3 eb3b 529a 67bc
00000040: 6b29 05bd c0d2 97bc df06 923b df02 303d
00000050: 0a68 a33c 39e4 b63c 19e7 82bd 53de 053e
00000060: 055c df3b 5cd9 9fbb 5ad5 c6bc 0213 95bc
00000070: c5ac 573c 42a6 423d ac04 a7bb 677e 4dbd
00000080: 9200 29bd 38f0 9abc 63ef 1e3c 08d6 91bc
00000090: 63a6 743c db9a e63c 73d6 b83c 2513 0a3c
000000a0: a57d 29bc 1a1c 223c 5f68 d33c 9303 efbb
000000b0: 4a20 61bb 692a 2c3c 6749 90bc 8fba 913c
000000c0: 3e54 23bd 57b6 2bbc 5c93 063d 365c db3a
000000d0: c1ac 8cbc bbda 3ebc edb0 9c3c ce51 e23b
000000e0: eb9c 1ebd 48fb e0bc 7bf1 34bc b2f1 31bc
000000f0: 1d26 13bd 6ac4 16bd ec39 15bd edf6 273d
00000100: e997 2abd 0b74 1a3c 531c 843b 9d91 abbc
00000110: 5fca 33bd 3672 78bc 15f3 b93b 6d12 aa3c
00000120: 5a53 523d 737c 26bd 1f5b cd3b 4558 d9bc
00000130: 4871 00bd 1e87 623d b411 c23b e27a 31bc
00000140: 1318 87bc ccb7 b8bc db0d cdbb 7eb7 eabc
00000150: 8f09 763c 8cd3 b53b b4b5 393d 4699 92bc
00000160: f6ee 97bb e099 453c 85d0 17bd 5959 9bbc
00000170: 36fd 443c 0da5 26bc 238b 9d3b aa9d 1ebc
00000180: e806 af3c f75e 533d 768b 0b3b cb2a 073b
00000190: 04a8 233c 131c 44bd 6a28 f33c 23ad 9dba
000001a0: 0797 47bd ea68 cfbb 88b9 9dba 9f8b 823c
000001b0: a1a1 50bc 5682 21bc 3310 523b 47d9 883b
000001c0: cc25 bcbb f949 653d 7fc4 c4bc 52fb 773c
000001d0: 5b13 a53b 31db 06bc 8ed2 e9bc 124b 6fb9
000001e0: 7f85 05bd 614a d1bc 5e6f 28bc c110 dbbb
000001f0: fc8c 923b abc7 843c baaa 7cbc 2f9a 533c
00000200: 0b8f 42bc cbde 353d 6299 2abb 66f2 713b
00000210: fec8 abbc 9142 82bc 6ddc 71bc 1330 71bc
00000220: 5818 913d 6ca3 de3c 4428 d43b d062 80bc
00000230: f021 01bc a4d1 e9bc 304d 02bd 659e 503c
00000240: 3978 5a3b 3ccc 4c3c 96cc 963c 4e4b 0b3d
00000250: 5f6d 453c 13d2 63bc 27f9 a23c 9d3d 28bc
00000260: eb48 4b3d fe0f 3fbb 2a92 99bb d10a 74bc
00000270: 0fdf a93c b92f 8fbb 2c78 fcbb c649 393c
00000280: a744 da3c 1883 d63c 5011 9e3c eee3 c3bc
00000290: 1a3a 433d 4e32 cf3b 881c 393d eca8 ce3c
000002a0: caa0 0c3a 476d 683d 796a e3bc 7735 3a3c
000002b0: 79f5 a5bc 11fc 0f3d 8532 1a3d 5bdb c93b
000002c0: 009a b2bb f079 9b3b 1ce7 48bc b82e 073b
000002d0: 19e3 0b3c 2080 0c3d a5af 9b3c 4c9d a9bc
000002e0: 399b 653c 6aa9 b8bc cebc e2bc 92a2 3cbc
000002f0: 65f3 d7bc 2b00 c53c e6ab 363d 4381 cfbc
00000300: 1b33 763d f410 afbb df6b c3bb 90f6 c535
00000310: dd91 493d 9380 73ba e7a3 2e3b 4617 413c
00000320: 26d7 d63c da6c 2fbc 8cf9 713c 34a2 6ebc
00000330: 04e0 a73b 93d4 acbc 2956 00bb dec7 253d
00000340: ea44 05bd 0dee 623c 6bef 86bc 0bbe 3d3d
00000350: cc0d 7abc 0426 21bc 9ce4 c43c 66ed cbbc
00000360: 892d 78bd 39cf c0bb e037 593c dec7 3ebc
00000370: cac5 dbbb 3d2f bcbc 05a1 8bbd 40fb 2fbd
00000380: 4d09 c8bc 7864 6d3c 80b2 bebc 4aac 683b
00000390: d56a 2cbc 1920 ec3c 1fe9 99bc d691 f03a
000003a0: 5c66 5bbc 0ae7 39bb cdd5 96bb 0c10 b83c
000003b0: 29e6 56bd db2f df3b c28c 64bd 8181 063d
000003c0: 80e4 393c df4c 0e3c 62ad 663c b62f 62ba
000003d0: ed4f 183d c241 b2ba 6469 b53c d950 adbb
000003e0: 12ce abbc a3d9 0dbd 8113 1f3d 0bd2 7d3d
000003f0: 17dc bb3b 4c2d 073d 830b 38bd d16a 3a3b
-0.016668873 0.006804853 0.045049556 0.019777434 -0.010527395 -0.015637515 0.017524278 0.021122022
-0.011120218 0.029055797 0.014880137 -0.023985628 -0.016976167 0.046756294 0.0071987626 -0.014135914
-0.032510202 -0.01853311 0.0044563855 0.042971488 0.01994707 0.022325622 -0.06391735 0.13073091
0.0068163895 -0.004878206 -0.024271656 -0.01819754 0.01316375 0.047521837 -0.0050969925 -0.050169375
-0.04126031 -0.018913373 0.009700629 -0.017802253 0.014932248 0.028150013 0.022563195 0.008427416
-0.010344897 0.009894395 0.025806604 -0.0072941273 -0.0034351521 0.010508158 -0.017613126 0.017789153
-0.03987526 -0.010480485 0.032855377 0.0016735855 -0.01717222 -0.011648829 0.019127334 0.0069067245
-0.038723867 -0.02746357 -0.011043902 -0.010860847 -0.03592502 -0.03680841 -0.03643219 0.04100697
-0.04164878 0.009427081 0.004031697 -0.020943457 -0.043894168 -0.015163949 0.0056747296 0.02076074
0.05134902 -0.040646028 0.006266966 -0.026531348 -0.031358033 0.05530464 0.0059225205 -0.01083252
-0.016490972 -0.022548579 -0.006257755 -0.028651949 0.015016927 0.0055489 0.0453393 -0.017895352
-0.0046366407 0.012060612 -0.037064094 -0.018963503 0.012023261 -0.010171187 0.004807846 -0.009681145
0.021365598 0.051604237 0.0021292842 0.0020624872 0.0099887885 -0.047878336 0.029682357 -0.0012029748
-0.048728015 -0.0063296454 -0.0012033442 0.015935717 -0.012733848 -0.009857735 0.0032053113 0.004176292
-0.0057418104 0.05597875 -0.024019478 0.015135603 0.0050377077 -0.00823097 -0.028542783 -0.00022820782
-0.032598015 -0.025548162 -0.010280458 -0.006685347 0.004472373 0.01620849 -0.015421564 0.012915178
-0.011874924 0.044401925 -0.0026031365 0.0036918162 -0.020969864 -0.015900882 -0.014762026 -0.014720934
0.07084721 0.027177535 0.0064745266 -0.015672117 -0.0078816265 -0.028542347 -0.031811893 0.012733077
0.0033335818 0.012499865 0.018408101 0.034007363 0.012050002 -0.013905066 0.019894196 -0.010268596
0.049630087 -0.002915382 -0.0046866136 -0.014895157 0.020736245 -0.0043697027 -0.0077047553 0.011309093
0.026644064 0.026185557 0.019295365 -0.023912396 0.04766283 0.0063231355 0.045193225 0.025227033
0.00053645356 0.05674484 -0.027760731 0.011365286 -0.020258652 0.0351525 0.037645835 0.0061601824
-0.005450487 0.0047447607 -0.012262132 0.0020627212 0.008538031 0.034301877 0.019004652 -0.020704888
0.014014059 -0.02254172 -0.02767792 -0.011513369 -0.026361177 0.024047932 0.04459753 -0.025330191
0.06010733 -0.005342597 -0.005963787 1.4749403e-06 0.04921137 -0.00092888734 0.0026647986 0.011785334
0.026225638 -0.010707105 0.014768969 -0.014565039 0.0051231403 -0.021097457 -0.0019582605 0.04047381
-0.032536425 0.013850701 -0.016471585 0.046323817 -0.0152620785 -0.009835724 0.02403479 -0.024893474
-0.0605903 -0.005884078 0.013257951 -0.011644332 -0.006706928 -0.022971744 -0.068178214 -0.04296422
-0.024418497 0.014489286 -0.023278475 0.0035503083 -0.010523518 0.0288239 -0.018787919 0.0018354009
-0.013391104 -0.002836647 -0.0046031238 0.02246859 -0.05246559 0.0068111247 -0.0557983 0.03283835
0.011345983 0.00868532 0.014079424 -0.00086283253 0.0371856 -0.001359992 0.02214498 -0.005289179
-0.020972285 -0.034631383 0.03883696 0.06196789 0.005733024 0.033002183 -0.044932853 0.0028445015

bias f4 [12]
00000000: 22ab 8eba 8328 433c 6f3d 3c3c 1562 893b
00000010: efa8 49bb 9f6d 26bc e191 a03b 30c2 8abc
00000020: e01a eaba 9d88 9a3b 7778 093c dc7a 3dbb
-0.0010884742 0.011911514 0.011489256 0.0041926005 -0.0030770858 -0.010157972 0.0049002026 -0.016938299
-0.0017860793 0.0047159926 0.008390537 -0.0028912341
