logs/obstacle_avoidance_v1/critic_best.pt (torch, 310576 bytes, 7 tensors)

obs_mean f4 [39]
00000000: 1bcf 0cbc da21 d53c a08a 0dbc 2cca 0dbc
00000010: a9be 6abb 675a 11bf 7341 69bd 8b75 983c
00000020: a9d0 703f 2de6 993c bd10 d9be 011e 12bf
00000030: 52d1 943d a981 4dbc 8047 723f 920a 3cbc
00000040: 46a7 dbbe f0d6 60bd 7dee d13d 6883 483d
00000050: d221 323e 4da4 683c f185 4f3c 1b2b 98bd
00000060: 9665 b3bd ec7e 32bd 95f9 483e 1a42 d33b
00000070: c6da 483c 678a 65bc bc52 36bc e256 033e
00000080: 0430 c13e f63d 9bbd 4ca9 b03d 3cf0 15bf
00000090: 57dd 15bf bce1 243b bce1 243b
-0.0085943 0.026017118 -0.008639008 -0.008654159 -0.0035819209 -0.5677857 -0.056947183 0.018610736
0.9406839 0.018786514 -0.42395583 -0.5707703 0.07266487 -0.01254312 0.9464035 -0.0114771295
-0.42901057 -0.05489248 0.10250566 0.048953444 0.17395714 0.014199329 0.012666211 -0.07430097
-0.0875961 -0.043578073 0.19626458 0.006447089 0.012259191 -0.0140100485 -0.011128124 0.12826112
0.37731946 -0.075801775 0.08626041 -0.58569694 -0.5854086 0.0025158962 0.0025158962

obs_std f4 [39]
00000000: 01a8 7d3e ad51 8b3e dde8 bf3f 533f e83f
00000010: d993 ce3f ce6d 933e c854 693e 6556 8c3e
00000020: cd55 933e 3b09 8d3e 268e 8d3e 281b 943e
00000030: b66a 6b3e 37b0 8c3e 819d 923e 7f1f 8d3e
00000040: 6402 8d3e 52ed 5d40 33b6 5240 6db5 a540
00000050: a0f1 9840 1035 ab40 3c21 9d40 424b 5c40
00000060: 827f 5440 d706 a540 aa01 9840 e4f5 ab40
00000070: 7b82 9d40 b449 283f a5db 403f 6f77 563e
00000080: de2b 6c3e 4c58 2b3e 3d55 4c3e 3757 3d3e
00000090: f597 5a3e eb29 dd3e eb29 dd3e
0.2477112 0.2721075 1.4992939 1.8144325 1.613887 0.28794712 0.22786248 0.27409664
0.28776398 0.27546105 0.27647513 0.2892697 0.22989926 0.2747819 0.2863579 0.27563092
0.27540886 3.46761 3.2923706 5.1783967 4.7794952 5.3502274 4.910307 3.4420934
3.3202825 5.157085 4.750203 5.373766 4.922178 0.6573746 0.7533515 0.20943998
0.23063609 0.16732901 0.19954391 0.18490301 0.2134703 0.43196043 0.43196043

weight f4 [256, 39]
00000000: 2629 4cbe e533 013e 452c 2c3d 1329 973d
00000010: d175 9dbd 3307 b0bd 5cf8 c3bd bcb3 aabc
00000020: 7db3 1c3d 8347 1ebd ae35 f4bd 111e c93d
00000030: 912a 86be 4de3 98bc 9eaf 823e e6c0 39be
00000040: 2bb5 0cbe 9b0a be3d 0eb5 b0bc 81e4 d23c
00000050: ef32 dbbc 7761 013e 35b4 bc3d 3a18 35bd
00000060: fa65 c9bd 48ab 33bd e53c ec3c 67a7 d23c
00000070: 37bc 063d 8a04 33be 9523 92be 8600 89be
00000080: eb07 983d 266c a4be b21d 063f e8ce 2c3e
00000090: a763 29be 02ae 2e3d 9fbe 4a3c c345 3c3f
000000a0: 4c23 cd3e 41ff b53e 694f 273e c826 013e
000000b0: 8d4e a93e 15be c33e 0aaa 6cbe 06bc db3d
000000c0: f0b3 b03e 78cc aebd 2655 b33e 8efb 6b3e
000000d0: 3faa 01be ab53 a83d 6b2f 0a3e 4640 a13c
000000e0: 83fe 163e 7860 673e f4a8 67be e4cd e3bc
000000f0: d9fd ef3d 8cc8 143e f72a 5e3e 063d f93d
00000100: 2095 b1bd 3cff 2d3e 8142 263c bdab ee3d
00000110: 0711 6fbc c5f0 113e 6ed4 393d c31b e43d
00000120: 5a91 66bd 1959 f43c 7e84 0fbd 7149 a8bd
00000130: cac2 ff3d 9370 f8bd 41e6 853e 12bb f63e
00000140: d6f8 41be 4ebb b63e b7e5 89be c63d 103f
00000150: b628 84be 1103 18be e32e ae3e 48c7 d7bd
00000160: 0dfd c23e f08e cc3c bd81 80be a556 d1bd
00000170: 1a9e 503d 0abd 033e 23c4 6dbd 1dad f53e
00000180: 3ca9 57be 9543 923e 7052 b33e 0aa2 f0bc
00000190: 8f48 ce3d 68a9 42be 28eb ffbc 9e1a 1e3d
000001a0: 86c8 d5bc a4cf a73b 93f4 eebc 9519 cd3c
000001b0: c71c 173c fdd2 f1bd 5a1c 063e 7eaf c0bc
000001c0: abad 70bd 6653 77be 5204 993d 1c25 223d
000001d0: c96e 7fbd 79ab 293e 389a 1bbe 3ee3 f63d
000001e0: e0e5 88be 1dd4 84bd 07a1 c63e b39a 95be
000001f0: 76b6 413e 59b2 de3c 7118 133e da5a 813e
00000200: a84b 2cbe aeca cc3e c06b 95be 2c45 03be
00000210: c72d 1f3f 0522 92be aae9 2f3e 64a7 abbe
00000220: a68d 553e 1318 2c3d 517c 21be c91a b33c
00000230: 48d2 c3be 1c20 e03e c64d a2be 1c04 d8be
00000240: a3d8 a53d 4983 dbbd e966 ba3e cc2b 2e3e
00000250: 0bf4 f03d 7b53 03be 4ad2 93bd 8601 483e
00000260: b6db d23d 037d 3d3e 53a8 2ebe 212d 1d3e
00000270: c5f7 d5bc 8b66 3ebe 84c5 2dbe 6e2a 27bd
00000280: c9f7 f23c 8fe8 90bc ff9f 95be 34b1 1fbd
00000290: 680d dc3d 0906 fbbd 0d1f 59bd 73b5 f7bd
000002a0: e80a c63d 38f9 c3bd 2810 1abd e726 9ebe
000002b0: 7891 d93e ea88 2fbd 7514 9bbd 64a3 3bbc
000002c0: 51bd 0bbe 50e3 71bd 2c78 583d f052 013d
000002d0: 99f8 7fbe 9c0e 12be 2402 dd3d 9c7c 633e
000002e0: 3b4f 92bd 9306 c13d d977 a83e 65da 823d
000002f0: eb13 b43d ba64 7c3d 997e b0bd 5f9b 03be
00000300: ad01 87bd 5178 22be 3883 a03d b519 a23e
00000310: 17b3 023c 9744 bbbd 814a 563e 179f a23d
00000320: 0fc0 b23e 27ae 42be f67f d0bd ceb4 afbc
00000330: 1701 473e e51e f0bd fc6f adbd ee0d 0abd
00000340: e1a4 8abd 1bb8 babc ae0a 41bd 16ba c4bd
00000350: 4970 c43c 930b a9bd 486c 203e 97cd 193e
00000360: 134e aabc 67cc b63d 61ce 2b3e 6329 a93d
00000370: 051c 2f3d 457a 203e d5fd 8d3c 7f02 81bd
00000380: 78d9 cf3d 3d11 193d 24fc af3e cd8a 4f3e
00000390: 1332 19be 7ddd 713d aef3 023e 2ab0 65be
000003a0: 7629 66bd 690d d83e 2b14 a83e e230 f53d
000003b0: d6ac 893e 4664 8a3d 4d73 21bd 5f56 ddbd
000003c0: 008e 6f3d fbdd dbbd 4857 183c c515 27bc
000003d0: 9249 c93d 2d7f 9c3e aa1f 113e ab21 e63d
000003e0: df6d dd3d 2d22 c9bd 80d4 7ebe 1a0f b0bd
000003f0: c8b0 183e 1dc2 30be 6f70 763d 1e0e 24bd
-0.19937572 0.12617452 0.042034406 0.07380881 -0.07688487 -0.08595123 -0.09568855 -0.020837657
0.03825711 -0.038642418 -0.11924301 0.09820188 -0.2620435 -0.018663073 0.2552461 -0.18139991
-0.13740985 0.092793666 -0.021570709 0.025743725 -0.026757685 0.12634836 0.09214059 -0.044212557
-0.098339036 -0.04386452 0.02883763 0.02571459 0.03289434 -0.174822 -0.28542772 -0.26758212
0.07423385 -0.3211376 0.5238906 0.16875803 -0.1654192 0.042646416 0.012374549 0.7354395
0.40065992 0.35546306 0.16338886 0.1261245 0.33067742 0.3823096 -0.2311174 0.10729222
0.3451228 -0.08535093 0.350259 0.23045179 -0.126626 0.082190834 0.13494651 0.019683968
0.14745526 0.22595394 -0.22623044 -0.027808137 0.117183395 0.14529628 0.21696077 0.121698424
-0.086710215 0.16991895 0.010147692 0.1165385 -0.014591462 0.14252003 0.045368604 0.11138108
-0.05629096 0.029827641 -0.035038464 -0.08217133 0.12488325 -0.12130847 0.26152232 0.48189598
-0.1894258 0.35689777 -0.2693307 0.5634426 -0.2581231 -0.1484492 0.34020147 -0.10536057
0.38083687 0.024970502 -0.25098982 -0.10221604 0.050932027 0.12865081 -0.05804838 0.47983637
-0.21060652 0.28567186 0.35023832 -0.029374141 0.10072433 -0.19009936 -0.03124006 0.038599603
-0.026096594 0.0051211882 -0.029169356 0.025036613 0.00922317 -0.11807821 0.13096753 -0.023521181
-0.058759373 -0.24152908 0.07471527 0.03958617 -0.062361512 0.16569318 -0.15195549 0.12055062
-0.2673788 -0.0648577 0.3879473 -0.2921959 0.1891726 0.027184652 0.14364792 0.25264627
-0.16825736 0.39998382 -0.2918377 -0.12819356 0.62179226 -0.2854158 0.1717898 -0.33526146
0.20854816 0.042015146 -0.15770079 0.021863358 -0.3824637 0.43774498 -0.3169996 -0.42190635
0.08097961 -0.107184 0.3640664 0.17008895 0.117652975 -0.12824814 -0.07217844 0.19531831
0.10295813 0.1850472 -0.17056398 0.15349247 -0.026119122 -0.18593805 -0.16969877 -0.04081195
0.029659169 -0.017689018 -0.2922363 -0.038987353 0.107447445 -0.122570105 -0.053008128 -0.120951556
0.09670049 -0.09569019 -0.037613064 -0.30889055 0.42493796 -0.04285518 -0.07572261 -0.01145253
-0.13646437 -0.059054673 0.05284898 0.031573236 -0.24997176 -0.14263386 0.10791424 0.22215503
-0.07144018 0.09425082 0.32903937 0.06389312 0.087928616 0.061619498 -0.086178966 -0.12852238
-0.065921165 -0.1586621 0.07837528 0.31660238 0.007977269 -0.09143942 0.20926858 0.079405
0.34912154 -0.19011746 -0.101806566 -0.02144852 0.1943401 -0.11724643 -0.08468625 -0.03370469
-0.067697294 -0.022792866 -0.047129326 -0.096058056 0.023979323 -0.08254161 0.15666306 0.15019833
-0.020789182 0.089257054 0.16777946 0.08259847 0.04275133 0.15671642 0.01733295 -0.06299304
0.10148901 0.037369955 0.34372056 0.20267792 -0.14960508 0.05904912 0.12788269 -0.22430483
-0.056191884 0.4219773 0.32827887 0.11972214 0.26889676 0.06757407 -0.0394166 -0.108074896
0.05848503 -0.10735699 0.009298153 -0.010198061 0.098284855 0.30565777 0.14172235 0.112368904
0.10811972 -0.09820972 -0.2488575 -0.085966304 0.14911187 -0.17261548 0.06016582 -0.040052526

bias f4 [256]
00000000: 1974 723d f8ab a93e 93d8 3e3e b154 0d3e
00000010: f99a 963e 6b55 46bd 52b8 983e 1b41 29be
00000020: 65cc 90be 049b 813e c938 903c f995 67be
00000030: 3c65 1e3e 777c c33d bbee 9a3d 83d8 493e
00000040: 2f6d 3c3e 7398 4c3c 75c7 283d ea77 c9be
00000050: a8c5 ebbd 8b87 cabd b23e 78bd bd0e 853d
00000060: 2ef6 d43d bd8c d23d af21 783e c1dc 663e
00000070: 9c42 3f3e ec1d 0e3e 15d6 44be aeee 0c3e
00000080: f1aa 243e 5cab febd d34c 943e 2cf7 0a3e
00000090: 13c9 3e3e 7186 4fbe cf42 99be fd8e 4b3e
000000a0: d01d 5b3e 62ca 283e 3f85 8a3e ad00 053e
000000b0: f4b7 aa3e 604f 253e 7566 15be 0d48 203e
000000c0: ee11 cd3d 27a8 7b3e 335d b93e a6ca 2bbd
000000d0: dfff c8bc 03f5 6a3e ff10 9abd c5fb 523e
000000e0: cc2b 103e 643e 9f3e dc67 88bc 9380 20be
000000f0: 8877 41bd cd71 5a3e 8a80 543e 6c79 0bbe
00000100: 2f83 903e 13df 613e 866b 993e f6cc 953e
00000110: fb25 9f3d 1118 3cbe c4cc b6bd 3309 06be
00000120: d7aa 2abd 7260 8e3e cfd1 94bd 8f76 0eba
00000130: 5157 793e e184 323e 02aa e7bd f456 31bd
00000140: 15fa bcbd 2fe5 3fbe 50e4 5a3e be59 133e
00000150: 2de2 3a3e b1b1 b83e 4b2c d93d 9c38 58be
00000160: 6ee2 1b3e f03d 973e c09c 853e 4b9c df3d
00000170: d0de 363e 441a 433e e13f 69bc 3671 303d
00000180: 0e5a 8c3e 77bd 163e 572f 623e d1e6 093e
00000190: 161d 083e 3be9 123e 7030 c33d 4eb7 c03e
000001a0: f45f 083e 2cf6 a23d 1075 9cbd 606e 8abe
000001b0: 4763 2abe 2615 b3bd 13df 923e e4b4 733e
000001c0: e4e6 6e3e fb44 4f3e b3f0 813e ad6d 9f3e
000001d0: 5dc6 1e3e 9149 683d eff3 b9bd 3bf1 48be
000001e0: ee31 593e c236 a83e fd3f 64bd f77f 383e
000001f0: 996f 7abe 143e 8f3e f4c6 433e 7553 b03c
00000200: d8eb 4c3e d144 c8bc 7f5a 213e c0b0 9f3e
00000210: 4c22 49bd 4007 0d3d d7c0 0f3e 265f 753c
00000220: c8ea 663e 3e88 603e 3521 2b3e aaa4 ba3e
00000230: 02d3 293e 8016 723e f97a 9b3e bb9c 863e
00000240: 6255 a2be b316 13bd 1f40 85be 3da3 d1bd
00000250: 4c6c 76be 3af5 4f3e 2b2c 043e 1b0d 613e
00000260: 75a1 97bd 51f0 3d3e 1486 8f3e 0cc2 91bb
00000270: 74ca 863e 350f d7bd 2bcc 21be bfdf 5bbe
00000280: b53d 4f3e b22b 8d3e 8afe 5f3e 9602 e1bb
00000290: 9886 253e c274 7dbe fa2f 9b3e 8971 893e
000002a0: baa9 11be 45ae 673e 69f0 9b3d e43f 5fbc
000002b0: 0376 8fbc dd4b db3d 4eaa 763e ab0d 913e
000002c0: 46d5 b73e ad17 7fbd 7499 713d 3909 a63e
000002d0: b84c 50be 19c6 39be a28b 42bd edd6 263e
000002e0: 4fa9 20bd b0fc 6f3e 68b1 ce3d d363 833e
000002f0: b053 55be c7ca 8c3e ac8b 573e 4276 093e
00000300: dd88 6c3e 72b5 a9bd a750 583d 0ff2 7a3e
00000310: 0de7 10be 7685 4f3e 9e4b 183e f5ed 803d
00000320: fb4e 3abe babe 873e 69b7 163d f98d f6bd
00000330: 8335 fe3d 0a88 723e e7e1 e03d ac58 723e
00000340: 88e3 ccbd 73bf 5e3e 3f97 613e 4631 c5bd
00000350: 3e5e 6a3e e88b 283e 6cb9 3d3e 121c b0be
00000360: c4c1 11be cfce 713e 859e 8b3d 51df b4bc
00000370: bc8e 4bbd dc33 a43e 3e07 393e 88b2 c33d
00000380: 85a2 313e f96e 133e 4f3c 003e ba3f 6b3e
00000390: d02e 713d ac7a a7bd dbac 0c3e 7e59 c03d
000003a0: 9eaf a93e 0cbe fe3d b715 7dbd 3365 4c3e
000003b0: 8c1f a13e 9ae1 9b3e 9c63 cf3d 5b90 da3e
000003c0: 35ee 8c3e 7bd1 7ebd 5138 2a3e f433 9f3e
000003d0: d15d 5f3e 81fa 4f3d b423 563e ac3d 7a3c
000003e0: 2245 a63e 3fda 923c 6977 873e 165d 833e
000003f0: ed5b 453e fcea 103b a6b1 c43e f3ed fe3d
0.05919275 0.33139014 0.18637304 0.13801838 0.2941511 -0.048421305 0.29828125 -0.16528742
-0.2828094 0.2531358 0.017605202 -0.22615804 0.15468305 0.09545224 0.075650655 0.19711499
0.18401025 0.012487519 0.041205842 -0.393493 -0.11512309 -0.09889134 -0.060606666 0.06496952
0.103985175 0.1028075 0.242316 0.22545148 0.18677753 0.13878602 -0.19222291 0.13762924
0.16080834 -0.12435028 0.28964862 0.13570851 0.18631391 -0.20266129 -0.29933783 0.19878764
0.21398091 0.16483453 0.27054784 0.12988539 0.3334347 0.1614356 -0.14589866 0.15652485
0.100131854 0.24575864 0.36203918 -0.041941307 -0.024536071 0.22945027 -0.07522773 0.20603855
0.14079207 0.31102288 -0.016651087 -0.15674047 -0.047233135 0.21332474 0.20752159 -0.13620538
0.28225085 0.22057752 0.29964846 0.29257935 0.07770916 -0.18368556 -0.08925775 -0.13089447
-0.04166683 0.27807957 -0.0726658 -0.0005434537 0.24349715 0.17433502 -0.11311723 -0.043295816
-0.09227387 -0.1873977 0.21376157 0.14389703 0.18250342 0.36073068 0.10604151 -0.21115345
0.15223095 0.29539442 0.26096153 0.109184824 0.17858434 0.19052988 -0.014236421 0.043076716
0.27412456 0.14720713 0.22088371 0.13466956 0.13292345 0.14346783 0.09530723 0.3763985
0.13317853 0.0795711 -0.076395154 -0.27037334 -0.16639434 -0.08744268 0.28685817 0.23799473
0.23330265 0.20241158 0.2537895 0.31138363 0.15505357 0.056710783 -0.0907973 -0.19623272
0.21210453 0.32854277 -0.055725086 0.18017565 -0.24456634 0.2797705 0.19118863 0.02152417
0.20011842 -0.024446877 0.15757178 0.31189537 -0.049104974 0.034430742 0.14038406 0.014976298
0.225505 0.21926972 0.16711886 0.36453754 0.165844 0.23641396 0.30367258 0.2629145
-0.31705767 -0.03591032 -0.26025483 -0.10236213 -0.2406475 0.2030839 0.12907474 0.21977656
-0.07403842 0.18548705 0.2803198 -0.004448181 0.26326334 -0.105009474 -0.1580054 -0.21472071
0.20238383 0.275724 0.21874443 -0.0068667633 0.16164625 -0.24751571 0.3031004 0.26844433
-0.14224902 0.22625072 0.07614214 -0.013626073 -0.017512327 0.10707829 0.24088404 0.2833074
0.35904902 -0.06227844 0.058984235 0.3242891 -0.20341766 -0.18141975 -0.047496445 0.16292925
-0.039223965 0.23436236 0.10092431 0.25662097 -0.20832705 0.27498457 0.21049374 0.13424018
0.23099084 -0.08286561 0.05281129 0.245064 -0.14150639 0.20265755 0.14872596 0.06295387
-0.18194191 0.265127 0.036796007 -0.12038798 0.1241255 0.23684707 0.109805875 0.23666638
-0.10004336 0.2175272 0.22030352 -0.09628539 0.22887513 0.1645962 0.18527764 -0.34396416
-0.14234072 0.23614047 0.068173446 -0.022079142 -0.04969667 0.32070816 0.18069169 0.095555365
0.17347153 0.14397801 0.12523006 0.22973529 0.058882535 -0.08177695 0.13737814 0.09392069
0.33141798 0.12438592 -0.061788287 0.1996048 0.3146938 0.30445558 0.10126421 0.4268826
0.27525488 -0.062211495 0.16623046 0.31094325 0.21813132 0.05077601 0.20912057 0.015273493
0.3247462 0.017926333 0.2645829 0.25656956 0.19273348 0.0022112718 0.38416785 0.12447729

weight f4 [256, 256]
00000000: 9bfe abbd f95c 10bd 16f8 e3bd 73b2 1dbc
00000010: 39f2 c73d 88f0 ffbc a960 fc3d 8288 db3d
00000020: ce9a 2bbf 8d9a c23d 2901 503d c340 c1be
00000030: 2875 81bd f69d de38 6a80 173d 89c7 923d
00000040: e2db e93c 06ae 413d 8e7d b9bd 8525 9f3e
00000050: f4b3 7f3d 407c 99bd f289 97bd ce35 b53d
00000060: 0c51 9d3c 7351 51bd a8a7 0bbc d28c 0a3e
00000070: 92a0 3e3e e7a1 eb3d f0a2 cabc d831 9c3a
00000080: 2496 ac3c 1202 64be 7687 303d 7f7a 203c
00000090: 0673 f53d 3d6c 16be 01c1 71be 7beb 643d
000000a0: 40c6 e53c 5b8c 643d 57cd 8b3b 1158 a63c
000000b0: 4011 22bc 3a85 edbb 858c 9dbc b3e7 ef3c
000000c0: a4c3 1bbe db2d c73d 152d 33bd 1b7c 903d
000000d0: 697c 193d b313 2e3e fb02 bb3d b656 5bbc
000000e0: 4560 03bd dc7e acbc df57 a23d de01 86bd
000000f0: c74d e6bb cc6a 08bd 5878 293e f2d5 25be
00000100: 5528 1a3e b6e7 a13d ca57 013d 21ed b83d
00000110: 8fb6 4f3d bf2f a5bd f979 d03d 8336 da3d
00000120: 8e74 37be b1e9 843c 5916 eebd a9c4 833d
00000130: 1a8f 403e 30cf 363d 2973 24be 1b1a 1abe
00000140: 2685 673e cd12 963d c3c8 633d 39a0 a53d
00000150: 542e e63d 2a35 b43d aa9d d43d 7335 6f3d
00000160: ff5b 5abd 09a5 843d 714f 613d 1579 d83d
00000170: 8ef8 85bd 1862 1e3d 2527 cabd 7319 4cbe
00000180: 95d4 7bbd e933 90bd 2e1d 013c f9c1 15be
00000190: 742d 9cbd b313 69bd d7d2 56bd df4e 3dbd
000001a0: 86c4 3dbc 8bfa 673e 659e 4fbe 947a 033e
000001b0: a796 35bd 35ff a93d 93ae 173d 6804 de3d
000001c0: 24b0 2d3e 79a8 2f3e 178a 383e df5e 9c3c
000001d0: f146 643d dfb6 97bd 7396 28bd e2d5 9dbe
000001e0: 63e5 313e d4ea c63d d578 2fbe 6765 0dbd
000001f0: e496 8b3d dd68 9c3d 1d5e 3fbe 37e0 833c
00000200: f609 8f3c f34c 4fbd 2df3 7f3e a947 dfb8
00000210: 14f8 96bc 9662 2abd 3c4b 643d aef2 f63d
00000220: 420e f33d 5498 94bc bd2d 6f3d fa77 71bd
00000230: 0307 ae3a f093 533e eaa7 5f3d fd1c 973c
00000240: 9765 d5be e6f8 0e3e 5537 75be 2e87 5abe
00000250: add5 0f3e 0751 36bd fba4 543d d8e2 853d
00000260: f026 63bd 70af 2e3e 019a b0bc 3f7d 1bbd
00000270: 55e6 1cbc e922 ad3d 222f 9fbd beab 203c
00000280: 473a 1d3e 5558 2f3e 677f 5f3e de77 c4bd
00000290: 06e1 f13d b0c0 b8bd b98d 803c 4ae3 c9bd
000002a0: a20e 26be 617c 313e 1326 ac3c 1a57 963d
000002b0: 67d8 bc3d ae8b 9fbc 970d d73a 0745 a63c
000002c0: 0f3d 2b3d 5bfc b9bd 2483 0c3e 31ad 613e
000002d0: 959e 4bbd dd7e 76be dc6c 07be 2828 363d
000002e0: 5c21 ed3c 5d38 ba3d 6b74 eb3d ddcd 5dbd
000002f0: 553b 3dbe abb6 203e d3c6 f3bc 9a25 25be
00000300: 2373 3c3c 5379 e7bd 0373 d13c 4134 863c
00000310: 4056 f83d 5af5 a03c d27b 843e 9680 883e
00000320: 86e2 2c3e 00ae 9c3c ec10 1cbc 5d08 0cbe
00000330: d14d 01be bdc2 5b3d 78c0 333a 39c1 dd3d
00000340: 16c6 84be da3d 3a3d 5826 a23d a843 f4bd
00000350: 38b9 d5bd 9aaa b4bd e3b0 acbd a984 72be
00000360: 3b52 7bbe c515 83bb 34c7 2abd 1f79 7dbd
00000370: 1bd2 c33c ec82 ac3c 56db 913d d886 733d
00000380: fd0c 7b3d 809d 13bd c525 8bbc 64a9 323e
00000390: 6429 8bbd 08ba 2e3d 3645 f1bc 729a 44bd
000003a0: 21d6 c33d a38c bd3d 08f1 a3bd 8543 853c
000003b0: 59c2 433d b8bd adbd 2241 94bd 7f95 fc3d
000003c0: aea0 29bc 1657 24be c402 e63d 62e7 273d
000003d0: 2858 7b3d 85c5 dcbc 0e14 553e 9383 b9bc
000003e0: 6dfc 053d a393 65bd 55c6 023e 526c 993d
000003f0: 2535 d0bd ca68 d3bd 8321 073e 809e 0d3c
-0.083981715 -0.035244916 -0.11131303 -0.009625065 0.09762997 -0.031242624 0.12323124 0.10719396
-0.6703309 0.095021345 0.050782356 -0.37744722 -0.06321174 0.000106152074 0.0369877 0.071669646
0.028547231 0.047285102 -0.09057151 0.31083313 0.062427476 -0.07494402 -0.07399358 0.08848153
0.019203685 -0.051103067 -0.008523859 0.13530281 0.1861594 0.1150549 -0.024735898 0.001191671
0.021067686 -0.22266415 0.043097936 0.00979483 0.119848296 -0.14689727 -0.23608781 0.055888634
0.028048635 0.055797916 0.004266422 0.020305665 -0.009891808 -0.007248548 -0.019232044 0.029285287
-0.1521135 0.09725543 -0.043744165 0.07054921 0.037472162 0.16999702 0.09131428 -0.013387373
-0.03207423 -0.021056585 0.07926916 -0.06543325 -0.0070283148 -0.033304974 0.16549814 -0.16194895
0.15054448 0.079055235 0.031577863 0.09029604 0.05071121 -0.080657475 0.101795144 0.106549285
-0.17915556 0.016224714 -0.11625356 0.06433994 0.18804589 0.044631183 -0.16059555 -0.15049021
0.22609386 0.07327805 0.055611383 0.08087201 0.11239305 0.08799203 0.103816345 0.058400583
-0.05331039 0.064767905 0.0550074 0.105699696 -0.06541549 0.03866777 -0.098707475 -0.19931583
-0.06148203 -0.07041151 0.007880492 -0.14624776 -0.07625857 -0.056903552 -0.052447166 -0.046217795
-0.011582499 0.22654168 -0.20275266 0.12839729 -0.044333126 0.0830063 0.03703172 0.10840684
0.16961724 0.17154111 0.18021427 0.019088207 0.055731717 -0.07407927 -0.041159105 -0.30827242
0.1737266 0.09712759 -0.17135938 -0.034520533 0.068158895 0.076371886 -0.18688245 0.016098125
0.017460804 -0.050610494 0.24995108 -0.000106468164 -0.01842884 -0.041597925 0.05573581 0.12058006
0.11867954 -0.018139042 0.05839323 -0.05895231 0.0013277236 0.20661902 0.054603495 0.01844644
-0.4167907 0.13962135 -0.23946889 -0.2134063 0.14046355 -0.044510867 0.05191515 0.06537408
-0.055457056 0.17059112 -0.02155781 -0.03796124 -0.0095764 0.08453924 -0.07772662 0.0098065715
0.15354262 0.1712354 0.21825944 -0.09593175 0.11810498 -0.09021127 0.015692579 -0.09857805
-0.1621652 0.17332603 0.021014249 0.07340832 0.09220963 -0.019475784 0.0016407248 0.020296587
0.041806277 -0.09081336 0.13721901 0.22038724 -0.049711782 -0.24071832 -0.1322512 0.04447189
0.028946571 0.09092782 0.11496814 -0.054151405 -0.18479665 0.15694682 -0.029757893 -0.16127625
0.01150206 -0.11302438 0.025567537 0.016382338 0.12125826 0.019648243 0.25875717 0.26660603
0.16883287 0.019125938 -0.009525519 -0.13675065 -0.12627341 0.053652514 0.0006856988 0.1082787
-0.25932378 0.045469142 0.0791747 -0.11926967 -0.10435718 -0.08821602 -0.08432176 -0.23683418
-0.24543087 -0.004000398 -0.04169388 -0.06188309 0.023903897 0.021058522 0.07121913 0.05945477
0.061291683 -0.036038876 -0.016985783 0.1744743 -0.06795004 0.042657882 -0.029451948 -0.047998853
0.09562326 0.0925534 -0.080049574 0.016267547 0.047792766 -0.084834516 -0.072389856 0.123332016
-0.01035325 -0.16048846 0.11230996 0.04099215 0.06136337 -0.026949653 0.20808432 -0.022645747
0.032711435 -0.056049 0.1277097 0.074913636 -0.101663865 -0.10322721 0.13196377 0.008643746

bias f4 [256]
00000000: 173c 623e 153d 383e 45be 323e 7370 9ebd
00000010: b7bf 1e3e c501 debd f1de c3bd c411 553c
00000020: a0e0 e4bd 1f5b 873e 92c0 253e a7c3 f2bc
00000030: ebdb 603e 88cb e0bd 4e20 a13e e494 babd
00000040: 79fc b3bd bbf0 35bd ffd4 413e 15c3 7b3e
00000050: 33ad 233e 8dd7 833e 1b4d 8d3d d1be 92bd
00000060: f97d 243e c703 f9bd cdd1 5c3e 5399 80bd
00000070: aa22 203e 538b 143e bdaa 1d3e 1f8d 213e
00000080: 38e0 a3bd 7105 233e e33f a2bd 79ae adbd
00000090: 90e1 1e3e 59e8 aebd 417f 22be f85b 313e
000000a0: 8eda 79bd 7f19 2d3e ec4c 293e 9549 213e
000000b0: 0352 203e 34cb 953e 8068 8ebe dd32 c5bd
000000c0: 3fe4 8e3e 1c69 713e 95f2 6abd 42bf 473e
000000d0: 1e57 a6bd c78c ddbd ba16 c9bc d16b 853e
000000e0: b12b 7e3e 4e05 903e 0a37 8ebd 97d7 2cbd
000000f0: 0c85 203e 11b7 aabd 9470 6abe 49e4 2e3e
00000100: a7bb 873e ac7b 873e 420c 863e 917c 263e
00000110: ac62 283e 7fcd e73d b9a4 313e 1e23 5abd
00000120: ba5d 3d3e 5650 2b3e d6f7 923d 3807 2b3e
00000130: 6ef6 0dbe 7aed 843e a070 ecbd 8a1c 73bd
00000140: 43bf 3e3e c46d b73d c8fe 633e 9b41 8e3c
00000150: 6d45 05be 72a8 a63e 9b2f 293e 5207 003e
00000160: a7c0 333c 55e0 f2bd 566a b83c bdf1 263e
00000170: 45d5 123e 2b75 97bd 8264 203e 08a1 1c3e
00000180: 1f34 223e f9a9 e6bd 4fb8 703e 72d9 c2bd
00000190: 97c4 16be e5fa 9f3e 264e 353e 0519 cfbd
000001a0: 3095 5d3e 7416 233e bc1e 6abd 6727 0fbe
000001b0: b92f 5cbd 978b 673e 9173 563e c159 013e
000001c0: 89c1 fc3d 933b d0bd 778a cfbd 0556 fb3d
000001d0: bd65 243e 4a8b 96bd 3ae2 953e bf79 42bd
000001e0: cc93 debd fa1d 363e 6fe9 8fbc ea4b 273e
000001f0: 805a 03bd ce75 c5bd 02c6 283e 66d8 d53d
00000200: 8b97 e7bd 5317 633e 408b c3bd 4173 69bd
00000210: 2951 1c3e 33e5 a6bd 2325 253e b706 b43d
00000220: e8fe c3bd 4161 76bb bc58 2d3e 275c e8bd
00000230: d17f 8dbd 4644 143e f741 313e 957a 823e
00000240: 4d84 113e 3703 6a3e d313 253e c186 cbbd
00000250: ba6f 2d3e a804 863d 15dc fabd 5883 a1bd
00000260: 7439 9abc 3e7c 1c3e 3dfd 8c3e 84a5 223e
00000270: 33de 2ebd 6403 c3bd 7f5d 5ebd 438e 253e
00000280: 1dff 813e ad64 05be 43e3 463e 3c33 f8bd
00000290: 328f b2bd 9015 003e f76d 763e 4438 03be
000002a0: 33df 533e aeb3 943e c629 8c3e 39c0 2b3e
000002b0: f855 62bd 82e5 8fbe edd1 07be 8906 203e
000002c0: ab7c 48bd 5f1c 63bd a155 1fbe 7c77 43bd
000002d0: d1c2 203e ef49 323e ab1b a83e 5de2 233e
000002e0: bc6c 743e 99a6 503e 21d2 243e 0da6 c7bd
000002f0: 8b21 3d3e b434 9fbd dae6 5e3e b2d4 3f3e
00000300: 8ca3 07bd 8797 41bd 4c88 a23d b094 71bd
00000310: 1de5 0f3e 4ebb 283e 05dd 6a3e cdfa a7bd
00000320: 7dc0 313e b7e5 8fbd 8f13 c5bd 8756 8f3e
00000330: 80a6 a8bd 143c e0bd 6651 b7bb 0d13 1d3e
00000340: 60ce fbbd f19c abbd e600 233e 8a9f 233e
00000350: bf59 a2bd 7cd6 1abe bae8 1f3e 99a7 9e3d
00000360: 1a5a 7f3e bdf2 8b3e 4d3e 8c3e b60a f0bd
00000370: 3e18 e1bd ff89 b1bd aad9 39bc b1a3 4bbc
00000380: 57ef efbd f6a1 8d3e b0d2 3cbd 1bb3 6f3e
00000390: 7eef 093e b2aa aa3e 582f 233e 4db8 7e3e
000003a0: f9a9 cfbd cd11 193e 95d1 8bbd 8ed1 2f3e
000003b0: 1322 723e ff3f 9fbd b5a3 21bd 41e7 8abd
000003c0: 614a a8bd 6673 763e 5841 dcbd fab7 c73c
000003d0: afe0 54bd 2fe0 28be 7023 fd3d f202 a23e
000003e0: bb74 063e 2102 243e d7a8 e4bd 0243 443e
000003f0: 01ca 4bbd 2f30 4f3e 1b39 d9bc b713 943e
0.22093235 0.17992051 0.17455395 -0.07736292 0.15502821 -0.10840181 -0.09564007 0.013004724
-0.11175656 0.26436707 0.16186741 -0.02963431 0.21958892 -0.109763205 0.3146996 -0.0911043
-0.0878839 -0.04441903 0.18928908 0.24586137 0.15984039 0.2575039 0.06899472 -0.071653016
0.1606368 -0.121589236 0.21564408 -0.06279244 0.15638223 0.14506273 0.15397163 0.1577649
-0.08001751 0.15920044 -0.07922342 -0.08480544 0.15515733 -0.085404105 -0.15868856 0.1732024
-0.060999446 0.16904257 0.1653325 0.15750726 0.15656285 0.29256594 -0.27814102 -0.09628842
0.27908513 0.23575252 -0.05736025 0.19506553 -0.08122085 -0.10817867 -0.02454697 0.2605882
0.24821354 0.28129047 -0.069440916 -0.04219779 0.15675753 -0.083356984 -0.22894508 0.17079271
0.26510355 0.26461542 0.26181227 0.16258456 0.1644389 0.11318492 0.17347993 -0.053256147
0.18492785 0.16729864 0.07176177 0.16701972 -0.13863537 0.2596243 -0.11544919 -0.05935339
0.18627648 0.08956483 0.2226516 0.017365268 -0.13014765 0.3255039 0.16522066 0.12502792
0.010971225 -0.11859194 0.022511642 0.16303153 0.14339168 -0.07395395 0.1566334 0.15295804
0.15840195 -0.112628885 0.23507808 -0.09514131 -0.1472343 0.31246105 0.17705593 -0.10112194
0.21638942 0.15926534 -0.057158217 -0.13979875 -0.05375645 0.22611843 0.20942523 0.12631895
0.123416014 -0.10167613 -0.10133832 0.12272266 0.16054435 -0.07350786 0.2927416 -0.047479387
-0.10868034 0.17784873 -0.017567364 0.16337553 -0.03206873 -0.0964161 0.16481784 0.10441665
-0.113082014 0.22176866 -0.09548044 -0.05699468 0.15265335 -0.08149185 0.16127448 0.08790343
-0.09570104 -0.003759459 0.1692838 -0.11345702 -0.06909145 0.14479169 0.1731032 0.25484148
0.14210625 0.22852789 0.16120844 -0.09937812 0.16937152 0.06543857 -0.122490086 -0.0788638
-0.018826224 0.1528177 0.27536955 0.15883452 -0.042692374 -0.09522131 -0.054288384 0.1616755
0.25389948 -0.13026686 0.19422631 -0.12119147 -0.087187186 0.12508225 0.24065386 -0.12814432
0.20690612 0.29043335 0.2737562 0.16772546 -0.055257767 -0.28104788 -0.13263674 0.15627493
-0.048947018 -0.05544698 -0.15560009 -0.04772137 0.15699317 0.17411016 0.3283361 0.1600432
0.23869604 0.20376052 0.16095783 -0.097484685 0.18469827 -0.07773724 0.2176775 0.1873348
-0.033114955 -0.04726365 0.07936153 -0.05897969 0.14052244 0.16477701 0.22935875 -0.08202133
0.17358585 -0.070262365 -0.09622871 0.27995703 -0.08234882 -0.10948959 -0.0055944202 0.15339299
-0.12295222 -0.083795436 0.15918311 0.15978828 -0.07927274 -0.15120882 0.15616122 0.077468105
0.24936715 0.27333632 0.27391282 -0.11720793 -0.10990952 -0.08668899 -0.011343399 -0.012429164
-0.11715572 0.2766263 -0.046099365 0.23408167 0.13470265 0.33333355 0.15936029 0.24874993
-0.101398416 0.14948197 -0.06827084 0.17169783 0.23645811 -0.07775878 -0.039462764 -0.067823894
-0.08217312 0.24067459 -0.10754651 0.024379719 -0.051972087 -0.16491769 0.12360275 0.31642872
0.13130467 0.16016437 -0.11165016 0.19166186 -0.049753193 0.20233224 -0.026516488 0.2892129

weight f4 [1, 256]
00000000: 3fbe b33e 581f 123f 91ea 213e 1f03 36bf
00000010: c283 943e 78a7 89bf b436 02bf a6aa 63bf
00000020: e71c 00bf edf0 ff3e 3d52 403e 8d10 42bf
00000030: f298 033f eaa2 86bf 97ce 0c3f 9e64 39bf
00000040: 669b 63bf fe3f 16bf 72a5 023e 3fb8 233f
00000050: 81c0 003e 0de2 aa3e 86a0 bb3e 6a94 f7be
00000060: 58be 3c3e ace5 46bf 79d2 b83e 6af5 6fbf
00000070: fc45 023e 1dd2 c23e ad81 973e 4038 0a3e
00000080: 4b9c e0be 5dcd 483e 4eb6 21bf 8457 d0be
00000090: db10 4b3e ec1e f9be 4ac3 30bf 1107 e93d
000000a0: b079 43bf 8d62 f43d 2c04 af3e 2ed4 1f3e
000000b0: d115 5a3e 8021 1c3f 00c6 8d3f 98a7 3fbf
000000c0: ec5d bc3e 6656 aa3e 9983 45bf b173 e33e
000000d0: bf32 62bf ef74 e0be 2d18 14bf e339 b53e
000000e0: ae6a ae3e aace e03e 0ca8 45bf 5ccc 62bf
000000f0: a9c9 103e 4e21 4dbf 0034 8a3f 57c9 ed3d
00000100: 6a5f bf3e cef5 d73e 4e20 053f be85 0f3e
00000110: 0786 1e3e f1f9 9c3e 650d 1b3e d932 f7be
00000120: 7bb5 fa3e ab70 db3d 87a1 c53e 3b43 303e
00000130: abc2 64bf 62a7 de3e 96d4 00bf 78d9 27bf
00000140: 3bb6 053e 3d33 873e eecd d73e 5204 52bf
00000150: bde0 91be 41d5 363f dd3c f93d f95a c33e
00000160: 992b 7bbf 5698 04bf 51a7 093f 5d77 063e
00000170: b2c5 613e 8180 44bf 8bc5 223e 29dd 333e
00000180: 5203 233e 60e7 75bf 0255 1e3f 1d64 f2be
00000190: bc7c 2bbf 4e8c 1c3f 157d 143e a503 40bf
000001a0: 20ea fb3e 2754 273e d988 e3be 53ca 09bf
000001b0: d2fd 7ebf f9cb ca3e f3a3 f83e 0e8f 5b3e
000001c0: d739 e83e 832e 19bf ee08 14bf 1985 b03e
000001d0: 7f9d 1b3e c912 fbbe 8b13 083f 4b4e 1dbf
000001e0: ac70 9ebf 0f88 293e 852d 92bc 9339 073e
000001f0: dcfb 1abf f14c 35bf 6670 253e 1a96 d63e
00000200: 1c8a 37bf f18a 893e 284f 4abf 1062 05bf
00000210: 11e2 683e 9740 5abf 704d 173e 342d c13e
00000220: ba09 07bf 8c06 68bf 8ed7 123e 08fb 24bf
00000230: d81d 3cbf 8737 a73e 1e5b b53e a634 a53e
00000240: f961 a33e cebd e53e ff0d 553e 20d3 56bf
00000250: d698 f63d f2e5 a83e 8a3d a2bf 7663 31bf
00000260: c2ca 32bf 26e1 463e 44b0 b13e 872f 093e
00000270: ef1a 7bbf 0d48 86bf 6420 09bf 9046 103e
00000280: 3397 d63e 7549 dabe f87e 233e 3eff fcbe
00000290: c14d 33bf c958 ca3e 72eb d43e 7972 07bf
000002a0: d74c ed3e 7c89 093f 15c9 053f d6fa b63e
000002b0: 97b4 17bf 3338 863f 5e66 8cbf c9d7 2b3e
000002c0: a1dc 40bf 53fb 0fbf 78ea 40bf 4f11 e8be
000002d0: 23f0 bb3e 9745 323e 624c 293f d5fe f43d
000002e0: de8d d93e 3d35 a33e e338 5a3e fff7 e4be
000002f0: ec3c ee3e 9903 c5be e7c7 b73e d23d c43e
00000300: 41fb 2bbf 4da0 6ebf f5c6 d83e 5faf 9fbe
00000310: cb1c ad3e 74e3 8f3e d902 f43e 7fd5 e2be
00000320: adaa 083e e024 53bf 71fd 8fbe ee0b 243f
00000330: 7b01 88bf bb8a ffbe c65d 283f ffaa 253e
00000340: ec84 cebe 2b68 84bf 29f6 513e acf4 103e
00000350: e9e0 aebe 4ca7 cabe 647c 3e3e 7228 a93e
00000360: 631b af3e c151 de3e 2288 dc3e b487 eebe
00000370: a1ed c1be 0d3d e6be 99c8 4dbf 7f17 4dbf
00000380: 1f46 f5be 232f 1e3f e555 09bf b56c b33e
00000390: b1d6 a93e b8ac 2e3f 6e7f e03d 93f8 953e
000003a0: 375d d5be 193e f13e 9089 4cbf c5e7 0f3e
000003b0: c8e9 713e 1492 5dbf b2d9 62bf 77d0 b5be
000003c0: ce2d f7be b7fa 103f cd08 e7be bd76 c43e
000003d0: 747b 95bf dcb5 d1be d842 a03e 670c 423f
000003e0: c009 c53e 25da 413e 536b 04bf 8d2b 063f
000003f0: dd71 7ebf 1880 043f 9fb7 8dbf 8ed9 293f
0.35106084 0.57079077 0.15812136 -0.7109851 0.29006773 -1.0754232 -0.5086472 -0.88932264
-0.500441 0.499885 0.18781371 -0.75806504 0.5140525 -1.0518467 0.5500273 -0.72419155
-0.88908994 -0.58691394 0.12758425 0.6395301 0.12573434 0.33375588 0.36645907 -0.48355418
0.18431985 -0.776942 0.36098078 -0.9373385 0.1272201 0.3805093 0.29591122 0.1349802
-0.43869242 0.1960959 -0.631688 -0.4069177 0.19830649 -0.48656404 -0.6904799 0.11378301
-0.76357555 0.119328596 0.3418287 0.15608284 0.21297385 0.60988617 1.107605 -0.748651
0.36790407 0.33269042 -0.7715393 0.44424203 -0.8835868 -0.43839213 -0.5784939 0.35395727
0.34065765 0.43907672 -0.77209544 -0.8859308 0.14139427 -0.80128944 1.0797119 0.11610668
0.37377483 0.42179722 0.5200242 0.14015862 0.15480815 0.3065944 0.15141828 -0.4828098
0.48966584 0.10714849 0.38599798 0.17213146 -0.8935954 0.43487078 -0.5032438 -0.65566206
0.13057797 0.2640628 0.421493 -0.8203784 -0.28491774 0.7141915 0.12169812 0.38155344
-0.981134 -0.51794946 0.5377093 0.13131471 0.22048071 -0.7675858 0.15895669 0.17564835
0.15919235 -0.96056175 0.6184846 -0.47342005 -0.66987205 0.6115159 0.1450084 -0.7500556
0.4920206 0.16340695 -0.44440344 -0.5382435 -0.9960605 0.39608744 0.48562583 0.2144129
0.45356628 -0.59836596 -0.57826126 0.34476545 0.15196799 -0.4903777 0.5315482 -0.6144759
-1.2378135 0.16555808 -0.017843971 0.13205557 -0.60540557 -0.7082053 0.16156158 0.41911393
-0.71695113 0.26863816 -0.7902703 -0.52102757 0.22742487 -0.85254806 0.14775634 0.377298
-0.52749217 -0.9063499 0.1434004 -0.64445543 -0.7348304 0.32659552 0.3542108 0.3226673
0.31910685 0.44871372 0.2080612 -0.839159 0.1204087 0.32987934 -1.267503 -0.6929239
-0.69840634 0.19421825 0.34704792 0.13397036 -0.9808797 -1.0490738 -0.5356505 0.14089417
0.4191223 -0.42634168 0.15966403 -0.49413484 -0.7004052 0.39520863 0.4158588 -0.52909046
0.46347687 0.5372541 0.5225995 0.35738248 -0.59259933 1.0485901 -1.096874 0.16781534
-0.75336653 -0.56242865 -0.7535777 -0.45325705 0.36706647 0.17409359 0.66132176 0.11962668
0.4249105 0.31876555 0.21310763 -0.44720456 0.46530855 -0.38479307 0.358947 0.38328415
-0.6718026 -0.9321335 0.42339292 -0.31188485 0.3381103 0.2810322 0.47658423 -0.4430351
0.13346358 -0.8247814 -0.28123048 0.64080703 -1.0625452 -0.4991053 0.65768087 0.16178511
-0.40335786 -1.034429 0.20504059 0.14155835 -0.34155968 -0.39580762 0.18602139 0.3303867
0.34200582 0.43421748 0.4307261 -0.46587908 -0.3787661 -0.44968453 -0.8038421 -0.8011398
-0.4790506 0.61790675 -0.5364669 0.35043874 0.3317161 0.682323 0.10961805 0.2929121
-0.4167268 0.4711769 -0.79897404 0.14053257 0.23624337 -0.8655102 -0.88613427 -0.3551061
-0.48277134 0.5663256 -0.45123902 0.3837184 -1.16783 -0.4095906 0.31300998 0.75800174
0.38484 0.18930872 -0.51726264 0.52410203 -0.9939249 0.51757956 -1.1071662 0.6634759
